…
=====================test are done===================
训练集:验证集:测试集=960:240:600
SEED       Acc        F1         BCA        EER       
2024       0.7717     0.7710     0.7717     0.7933    
2025       0.7600     0.7599     0.7600     0.7700    
2026       0.7667     0.7666     0.7667     0.7667    
2027       0.7733     0.7733     0.7733     0.7700    
2028       0.7600     0.7599     0.7600     0.7633    
Avg        0.7663     0.7661     0.7663     0.7727    
Std        0.0056     0.0055     0.0056     0.0106    
--------------------------------------------------
CNN_LSTM(
  (block1): Sequential(
    (0): Conv2d(1, 32, kernel_size=(64, 1), stride=(1, 1), bias=False)
    (1): BatchNorm2d(32, eps=1e-05, momentum=0.1, affine=True, track_running_stats=True)
    (2): ELU(alpha=1.0)
    (3): AvgPool2d(kernel_size=(1, 2), stride=(1, 2), padding=0)
    (4): Dropout(p=0.25, inplace=False)
  )
  (block2): Sequential(
    (0): Conv2d(32, 64, kernel_size=(1, 1), stride=(1, 1), bias=False)
    (1): BatchNorm2d(64, eps=1e-05, momentum=0.1, affine=True, track_running_stats=True)
    (2): ELU(alpha=1.0)
    (3): AvgPool2d(kernel_size=(1, 2), stride=(1, 2), padding=0)
    (4): Dropout(p=0.25, inplace=False)
  )
  (block3): Sequential(
    (0): Conv2d(64, 128, kernel_size=(1, 1), stride=(1, 1), bias=False)
    (1): BatchNorm2d(128, eps=1e-05, momentum=0.1, affine=True, track_running_stats=True)
    (2): ELU(alpha=1.0)
    (3): AvgPool2d(kernel_size=(1, 2), stride=(1, 2), padding=0)
    (4): Dropout(p=0.25, inplace=False)
  )
  (convblock): Sequential(
    (0): Sequential(
      (0): Conv2d(1, 32, kernel_size=(64, 1), stride=(1, 1), bias=False)
      (1): BatchNorm2d(32, eps=1e-05, momentum=0.1, affine=True, track_running_stats=True)
      (2): ELU(alpha=1.0)
      (3): AvgPool2d(kernel_size=(1, 2), stride=(1, 2), padding=0)
      (4): Dropout(p=0.25, inplace=False)
    )
    (1): Sequential(
      (0): Conv2d(32, 64, kernel_size=(1, 1), stride=(1, 1), bias=False)
      (1): BatchNorm2d(64, eps=1e-05, momentum=0.1, affine=True, track_running_stats=True)
      (2): ELU(alpha=1.0)
      (3): AvgPool2d(kernel_size=(1, 2), stride=(1, 2), padding=0)
      (4): Dropout(p=0.25, inplace=False)
    )
    (2): Sequential(
      (0): Conv2d(64, 128, kernel_size=(1, 1), stride=(1, 1), bias=False)
      (1): BatchNorm2d(128, eps=1e-05, momentum=0.1, affine=True, track_running_stats=True)
      (2): ELU(alpha=1.0)
      (3): AvgPool2d(kernel_size=(1, 2), stride=(1, 2), padding=0)
      (4): Dropout(p=0.25, inplace=False)
    )
  )
  (lstm): LSTM(1000, 128, num_layers=2, batch_first=True)
  (clf): Sequential(
    (0): Linear(in_features=2048, out_features=128, bias=True)
    (1): Linear(in_features=128, out_features=2, bias=True)
  )
)
