…
=====================test are done===================
训练集:验证集:测试集=960:240:600
SEED       Acc        F1         BCA        EER       
2024       0.8383     0.8383     0.8383     0.8400    
2025       0.8700     0.8696     0.8700     0.8700    
2026       0.8483     0.8481     0.8483     0.8583    
2027       0.8800     0.8800     0.8800     0.8767    
2028       0.8600     0.8590     0.8600     0.8150    
Avg        0.8593     0.8590     0.8593     0.8520    
Std        0.0149     0.0148     0.0149     0.0223    
--------------------------------------------------
EEGNet(
  (block1): Sequential(
    (0): ZeroPad2d((31, 32, 0, 0))
    (1): Conv2d(1, 8, kernel_size=(1, 64), stride=(1, 1), bias=False)
    (2): BatchNorm2d(8, eps=1e-05, momentum=0.1, affine=True, track_running_stats=True)
  )
  (block2): Sequential(
    (0): Conv2d(8, 16, kernel_size=(64, 1), stride=(1, 1), groups=8, bias=False)
    (1): BatchNorm2d(16, eps=1e-05, momentum=0.1, affine=True, track_running_stats=True)
    (2): ELU(alpha=1.0)
    (3): AvgPool2d(kernel_size=(1, 4), stride=(1, 4), padding=0)
    (4): Dropout(p=0.5, inplace=False)
  )
  (block3): Sequential(
    (0): ZeroPad2d((7, 8, 0, 0))
    (1): Conv2d(16, 16, kernel_size=(1, 16), stride=(1, 1), groups=16, bias=False)
    (2): BatchNorm2d(16, eps=1e-05, momentum=0.1, affine=True, track_running_stats=True)
    (3): Conv2d(16, 16, kernel_size=(1, 1), stride=(1, 1), bias=False)
    (4): BatchNorm2d(16, eps=1e-05, momentum=0.1, affine=True, track_running_stats=True)
    (5): ELU(alpha=1.0)
    (6): AvgPool2d(kernel_size=(1, 8), stride=(1, 8), padding=0)
    (7): Dropout(p=0.5, inplace=False)
  )
  (clf): Classifier(
    (flatten): Flatten(start_dim=1, end_dim=-1)
    (fc1): Linear(in_features=496, out_features=50, bias=True)
    (relu): ReLU()
    (fc2): Linear(in_features=50, out_features=2, bias=True)
    (clf): Sequential(
      (0): Flatten(start_dim=1, end_dim=-1)
      (1): Linear(in_features=496, out_features=50, bias=True)
      (2): ReLU()
      (3): Linear(in_features=50, out_features=2, bias=True)
    )
  )
)
